…
2020-06-18 07:30:21.164654: I tensorflow/compiler/xla/service/service.cc:168] XLA service 0x55697447cc70 executing computations on platform CUDA. Devices:
2020-06-18 07:30:21.164664: I tensorflow/compiler/xla/service/service.cc:175]   StreamExecutor device (0): GeForce GTX 1080 Ti, Compute Capability 6.1
2020-06-18 07:30:24.014509: I tensorflow/stream_executor/platform/default/dso_loader.cc:42] Successfully opened dynamic library libcublas.so.10
>>>Obesity<<<
_________________________________________________________________
Layer (type)                 Output Shape              Param #   
=================================================================
embedding_1 (Embedding)      (None, 150, 128)          64000     
_________________________________________________________________
spatial_dropout1d_1 (Spatial (None, 150, 128)          0         
_________________________________________________________________
lstm_1 (LSTM)                (None, 150, 500)          1258000   
_________________________________________________________________
lstm_2 (LSTM)                (None, 150, 500)          2002000   
_________________________________________________________________
lstm_3 (LSTM)                (None, 150, 500)          2002000   
_________________________________________________________________
lstm_4 (LSTM)                (None, 150, 500)          2002000   
_________________________________________________________________
lstm_5 (LSTM)                (None, 500)               2002000   
_________________________________________________________________
dense_1 (Dense)              (None, 4)                 2004      
=================================================================
Total params: 9,332,004
Trainable params: 9,332,004
Non-trainable params: 0
_________________________________________________________________
None
Train on 603 samples, validate on 67 samples
Epoch 1/50
 - 10s - loss: 1.2528 - acc: 0.2803 - val_loss: 1.2210 - val_acc: 0.7313
Epoch 2/50
 - 3s - loss: 1.2162 - acc: 0.6302 - val_loss: 0.8481 - val_acc: 0.7313
…
