…
2020-06-18 04:21:29.231791: I tensorflow/compiler/xla/service/service.cc:168] XLA service 0x562a3d0a6ad0 executing computations on platform CUDA. Devices:
2020-06-18 04:21:29.231803: I tensorflow/compiler/xla/service/service.cc:175]   StreamExecutor device (0): GeForce GTX 1080 Ti, Compute Capability 6.1
2020-06-18 04:21:32.093573: I tensorflow/stream_executor/platform/default/dso_loader.cc:42] Successfully opened dynamic library libcublas.so.10
>>>OBESITY<<<
_________________________________________________________________
Layer (type)                 Output Shape              Param #   
=================================================================
embedding_1 (Embedding)      (None, 150, 128)          64000     
_________________________________________________________________
spatial_dropout1d_1 (Spatial (None, 150, 128)          0         
_________________________________________________________________
lstm_1 (LSTM)                (None, 150, 500)          1258000   
_________________________________________________________________
lstm_2 (LSTM)                (None, 150, 500)          2002000   
_________________________________________________________________
lstm_3 (LSTM)                (None, 150, 500)          2002000   
_________________________________________________________________
lstm_4 (LSTM)                (None, 150, 500)          2002000   
_________________________________________________________________
lstm_5 (LSTM)                (None, 500)               2002000   
_________________________________________________________________
dense_1 (Dense)              (None, 4)                 2004      
=================================================================
Total params: 9,332,004
Trainable params: 9,332,004
Non-trainable params: 0
_________________________________________________________________
None
Epoch 1/50
 - 9s - loss: 1.2539 - acc: 0.2507
Epoch 2/50
 - 4s - loss: 1.2208 - acc: 0.6403
Epoch 3/50
 - 4s - loss: 0.9263 - acc: 0.6403
Epoch 4/50
 - 3s - loss: 1.6287 - acc: 0.6403
…
